Model: "sequential"
_________________________________________________________________
Layer (type)                 Output Shape              Param #   
=================================================================
conv2d (Conv2D)              (None, 26, 26, 32)        320       
_________________________________________________________________
conv2d_1 (Conv2D)            (None, 24, 24, 64)        18496     
_________________________________________________________________
max_pooling2d (MaxPooling2D) (None, 12, 12, 64)        0         
_________________________________________________________________
dropout (Dropout)            (None, 12, 12, 64)        0         
_________________________________________________________________
conv2d_2 (Conv2D)            (None, 10, 10, 128)       73856     
_________________________________________________________________
conv2d_3 (Conv2D)            (None, 8, 8, 256)         295168    
_________________________________________________________________
max_pooling2d_1 (MaxPooling2 (None, 4, 4, 256)         0         
_________________________________________________________________
dropout_1 (Dropout)          (None, 4, 4, 256)         0         
_________________________________________________________________
flatten (Flatten)            (None, 4096)              0         
_________________________________________________________________
dense (Dense)                (None, 256)               1048832   
_________________________________________________________________
dropout_2 (Dropout)          (None, 256)               0         
_________________________________________________________________
dense_1 (Dense)              (None, 128)               32896     
_________________________________________________________________
dropout_3 (Dropout)          (None, 128)               0         
_________________________________________________________________
dense_2 (Dense)              (None, 10)                1290      
=================================================================
Total params: 1,470,858
Trainable params: 1,470,858
Non-trainable params: 0
_________________________________________________________________
Epoch 1/10
  1/469 [..............................] - ETA: 0s - loss: 2.2971 - accuracy: 0.1172  2/
…
